src/rfdetr/sci_weights/weights_1_3500.pt (torch, 104050 bytes, 32 tensors)

ha.in_conv.0.weight f4 [3, 3, 3, 3]
00000000: 9e97 5bb0 e63e 0e36 f68f 09b2 f478 3932
00000010: 58b0 51b1 1a7f 9c31 c79d 21b8 7118 2d37
00000020: f733 9638 b63d 1c2c 839d 1805 697e 1b89
00000030: f309 31a6 115a a8b7 fcbe ca16 4e2b cb37
00000040: 7418 0ca3 7922 3fb7 9d28 c8b0 b41d 9b08
00000050: 882e 0080 1b84 8c09 c2ca 7f37 8c3e 52b6
00000060: 0c5c 1b06 67e7 d6b6 d290 0988 e714 dbbe
00000070: ff68 1f3f ec4e 883e 63ea 95be 0523 33be
00000080: 6292 263e 40ac 303d c461 583e faae 4bbe
00000090: 6886 74be 8e19 f73e 8e77 533e 43e9 8abe
000000a0: 8e71 893c 187a 573e 518a 8c3d 4835 373e
000000b0: 2ecf 813d e04a a8be 7b79 ec3e 12f9 a13e
000000c0: 65b9 89be 9f7e a43c 42e3 4d3c 111a 3b3e
000000d0: 68a4 4b3d 54c3 eabd f8a8 6ebe f32d c83e
000000e0: d13c 993e 9007 943e e2e1 2a3d d01d 723e
000000f0: 2ae0 48be 7f23 4cbe c159 773c 099f c0bb
00000100: 890f 913e 19a4 943e e099 883e 4203 ff3d
00000110: 5872 1b3e f47d d73c fcb0 b8bd 285c b1bd
00000120: d2f7 ccbc b3ae 6f3e bdcd 823e eb21 263e
00000130: fee6 393d ea52 863e f8eb 03be 336d 20be
00000140: dc66 033c
-7.9887197e-10 2.119626e-06 -8.0071825e-09 1.0795919e-08 -3.0513743e-09 4.5546473e-09 -3.8532333e-05 1.0317294e-05
7.1622366e-05 2.220319e-12 7.175936e-36 -1.8716884e-33 -6.1422695e-16 -2.0069101e-05 3.2755388e-25 2.4219651e-05
-7.594593e-18 -1.1392513e-05 -1.4563458e-09 9.335706e-34 -1.6692e-41 3.3828005e-33 1.5246393e-05 -3.1328846e-06
2.9219885e-35 -6.4046358e-06 -4.1397173e-34 -0.42789385 0.62269586 0.26622713 -0.29280385 -0.17493828
0.16266778 0.04313302 0.21131045 -0.19890967 -0.23879397 0.48261684 0.20651075 -0.2713109
0.01677778 0.21042669 0.06862319 0.17891419 0.063383445 -0.32869625 0.46186432 0.31635338
-0.26899257 0.020079909 0.0125663895 0.18271662 0.049717337 -0.11463037 -0.23306644 0.39097556
0.29929212 0.2891202 0.041719325 0.23644185 -0.19616762 -0.19935416 0.015097083 -0.0058783335
0.28332165 0.29031447 0.26679897 0.12451793 0.15180337 0.026305176 -0.09018132 -0.086601555
-0.025020514 0.23406486 0.2554759 0.16223876 0.045386307 0.26235133 -0.12882984 -0.15666656
0.008020129

ha.in_conv.0.bias f4 [3]
00000000: c007 cbb9 5b77 d43d 95c2 2d3e
-0.0003872495 0.10374328 0.16968758

ha.blocks.0.0.weight f4 [3, 3, 3, 3]
00000000: 052e 0000 7799 31b7 402f 0000 7220 7f05
00000010: 4b8f 7c11 7879 e936 30a7 dab4 2124 05b7
00000020: 6768 0d2d f89f febc 3acb adbe 2f3a ddbd
00000030: 9ce4 c93e d292 e33d 0688 e53d 6f08 e5bd
00000040: e9c2 34be 8ff9 aebc 9408 953c af37 3b3e
00000050: e7a3 5b3e 2f89 773e 1cbc 93be 19e1 82be
00000060: 5f7a 80bd 1548 fb3c fce6 be3e de72 a90b
00000070: 8c26 6bb6 4f39 0080 c219 bfa7 4c75 d516
00000080: 9805 1700 c810 9036 a8d5 5607 cfcb 2332
00000090: 28ed eabd aa17 36bc fd77 9bbd ed22 d6be
000000a0: 69e6 9c3e 2725 b9be 30bd 4ebe 0f2f dcbd
000000b0: f5d0 dfbc 5f9d 813e 6d58 99be 565d 293e
000000c0: 932d 49bd 661e 803e 3c85 16be fa66 ec3d
000000d0: 3c43 7a3e 4385 363e b750 bf29 c5df bc33
000000e0: 548b 3133 dd5b 1a2f f52f 0000 d630 0080
000000f0: 85d8 222f b3cc 0080 2f63 b1a9 226b 30be
00000100: e984 8dbe 447e 87bd 13eb b73e 8690 b53d
00000110: 7ba1 a0be 95d5 5b3e fc5f f93d 918d 11be
00000120: 2bfd eabd e190 3bbe 2732 d1bd 2f1e 923e
00000130: f6b9 b53e 18b0 2a3e a54a 4f3e 0b24 b43d
00000140: e32f b5ba
1.6509e-41 -1.0585753e-05 1.695e-41 1.19960016e-35 1.992345e-28 6.958082e-06 -4.072731e-07 -7.93583e-06
8.038104e-12 -0.031082138 -0.33944112 -0.10802113 0.39432228 0.11111988 0.11207585 -0.11183249
-0.17652477 -0.021359233 0.018192567 0.1828296 0.21449243 0.24173425 -0.28854454 -0.2556236
-0.062733404 0.03067402 0.37285602 6.5269265e-32 -3.5040166e-06 -2.0558e-41 -5.3041076e-15 3.448603e-25
2.114223e-39 4.293488e-06 1.6162359e-34 9.534189e-09 -0.11471015 -0.01111404 -0.07591245 -0.4182352
0.3064454 -0.36161157 -0.20189357 -0.10751163 -0.027321318 0.25315377 -0.29950276 0.16539511
-0.04911573 0.25023192 -0.14699262 0.11543079 0.2443971 0.17824273 8.496106e-14 8.7951356e-08
4.1337742e-08 1.4038855e-10 1.7204e-41 -1.7519e-41 1.4810737e-10 -7.3432e-41 -7.8775846e-14 -0.17228368
-0.27640465 -0.0661588 0.35921535 0.08865456 -0.313732 0.21468194 0.12176511 -0.1421416
-0.11474069 -0.18316986 -0.10214644 0.28538653 0.3549344 0.16668737 0.20243318 0.08795937
-0.0013823475

ha.blocks.0.0.bias f4 [3]
00000000: 5a02 d23d b093 6c3e 2713 da3e
0.10254355 0.23103213 0.42592737

ha.out_conv.0.weight f4 [3, 3, 3, 3]
00000000: a372 c9bd d928 ccbe e2dc 25be 5013 643e
00000010: 4749 c53e 4a73 223b 8dba af3e cee1 94be
00000020: 9f60 0dbf 9d7a 223e 95eb 84be f827 fdbd
00000030: 5b31 50be 29eb 393d 95f5 333e c0c1 4cbd
00000040: f63e e0be e75e fd3e e45f 52bd 9139 323d
00000050: ce5c de3c 7e9f 8bbe 5d79 c0be 59ed 85be
00000060: ce5e d0bd 7b71 e0be ab31 a9bd 59bf 04be
00000070: 97f5 7cbe 4642 283d 4474 f33d 0c22 593e
00000080: ec5d 363e e03a 2f3e e516 a5bd 4714 9cbe
00000090: 0269 01bc 3e9f 9fbe d829 b8bd c1c6 5cbe
000000a0: 61f4 783d 17ab d63e 52f7 07be edf6 a3be
000000b0: 07f0 ee3e 3c49 b23c 7b90 9c3d 5a6c 95bd
000000c0: 5d21 2ebe 8440 c6be 3184 a8be 1ef3 52be
000000d0: 1bdf 88be 9e40 66be 2473 523c e714 c1be
000000e0: e37e dfbc f2d8 613e 7812 483e 00d1 133e
000000f0: ad40 933e 3c69 8ebe ada8 adbe b217 ba3d
00000100: 5775 8fbe d939 4ebe 7069 8cbc 2517 93bc
00000110: 79b0 923e 699d cebd 0bae adbe 93f1 103f
00000120: 7ff7 2dbd 83bc 873d d97d 0a3d 8195 5fbe
00000130: 2d73 e8be ef2b 70be d406 dcbd f50f b9be
00000140: 8ca5 4abe
-0.09836318 -0.39874914 -0.16197541 0.22272992 0.3853247 0.0024787956 0.34322014 -0.29078525
-0.5522556 0.15867086 -0.25960985 -0.12361139 -0.20331328 0.04539028 0.17574151 -0.049989462
-0.43798035 0.49486467 -0.05136098 0.04351193 0.027143862 -0.2727012 -0.37592593 -0.26157644
-0.101743326 -0.4383658 -0.082614265 -0.12963618 -0.2470306 0.04107883 0.1188741 0.21204394
0.17809266 0.17112303 -0.080610074 -0.3048422 -0.007898571 -0.3117618 -0.08992356 -0.21560194
0.060779933 0.41927406 -0.13277939 -0.32024327 0.466675 0.021763436 0.07644745 -0.07296057
-0.17004915 -0.38721097 -0.32913354 -0.20600554 -0.26732716 -0.22485587 0.0128448345 -0.3771126
-0.027282184 0.22055414 0.19538295 0.14435196 0.2876028 -0.27814662 -0.33917752 0.09086551
-0.2801921 -0.20139255 -0.01714012 -0.017955372 0.28650263 -0.10088617 -0.33921847 0.56618613
-0.04247236 0.06627753 0.033811424 -0.21834375 -0.45400372 -0.2345426 -0.1074349 -0.36144987
-0.19789714

ha.out_conv.0.bias f4 [3]
00000000: 013a 05bd 8b1c 4abe 5bb9 6cbe
-0.03252602 -0.19737451 -0.23117582

hb.in_conv.0.weight f4 [16, 3, 3, 3]
00000000: 2b25 f7bd f63f 543b a05a 383d 890d 4b3d
00000010: 8851 a6bc 6ee2 f23d 900c 03be 81bd 033d
00000020: 4464 913d 7428 d8bb c7b0 d1bd da4a c4bd
00000030: 1405 17bd e08c 52bd b5f0 13bd f309 a7bd
00000040: 886f 663c 7767 bc3d 6adb 003e 90d3 10be
00000050: 52e9 b6bd a0bd abbd b5d7 d83d c694 c33d
00000060: 6ec8 9b3d 9c6e d13c 00d1 223e f45b 213e
00000070: 4a23 563d 6cef 62bd c761 073e 5407 a13c
00000080: 157e d23c d534 09be 53ef b83c 440a 29be
00000090: 532a 51be d01b 763d 037e 1dbe 392a 12be
000000a0: cd40 c83d 30db 11be e1ca ac3c aef4 143e
000000b0: 0517 ffbd 9a87 a6bd 1031 22be 6a9b 9e3d
000000c0: 6bc9 08be 5a96 973d 1327 b1bd f4e9 de3d
000000d0: 1702 c23d 62c2 f33d cb8f b2bd bcc3 0c3d
000000e0: c9f8 023e 873b b6bc c731 e7bc cb03 663d
000000f0: 6ad7 36bd 9f43 703d db22 a5bd 9506 463c
00000100: f871 a73d 3d92 7a3d 9bd7 95bd 906d 813c
00000110: f323 233e cef8 78bd f14c 6e3d 47a7 bebd
00000120: 1e1d 80bc a90c 1bbd 92e1 39bb 4c8d 0cbe
00000130: 787d 00be c644 013d 688b 113b c63c e0bd
00000140: 1180 bcbd 046c 683c 1c8c d53c 841a 413d
00000150: 3c5e 403e ff56 efbd e028 963d ef75 0d3e
00000160: a0f5 a93d cce1 bebd c8fd b23d 42e2 19bd
00000170: 445d a93b c8ca 56be 0aa5 d13d 7995 1bbe
00000180: be06 193e 217c 243e 7fe0 e93d 51ff 60bd
00000190: 50c1 03be 7fa1 663d c5ed ee3d 08b9 b63d
000001a0: 4825 60be e398 fe3d 4561 c73c 8b0a f4bd
000001b0: 407e 93bb dee7 013e c217 043e a54c 563d
000001c0: ef6a cd3d f9e3 913d 1415 3b3d 1001 b93d
000001d0: 5078 1a3d 34c5 08be bd5b 073e 35a1 89bd
000001e0: d7c9 9ebd 09e6 5fbe 5278 233e 8a50 5cbd
000001f0: 4a31 06bd 0474 243c 7124 ed3d 2776 06be
00000200: 45be 4fbe 695e 863d dd3c a9bd 68b2 fabd
00000210: 038d a83d db76 943c 1c1e 13bd ae8b cb3a
00000220: 93e8 083a c3b8 3fbd a25d 3a3d fcce 6fbb
00000230: c46e 8bbb 3514 bdba 44a3 943b 7828 20ba
00000240: b3db 38bd 4618 57bd 3d47 063d d928 603d
00000250: a816 23ba cae4 153d 2ce5 9b3c 6ec8 c23c
00000260: 4f09 b7bc 817a 74b9 7464 a338 9230 91bb
00000270: f9e4 043d f4fa 023a 7f8f d43c 416e 193b
00000280: a66b cb3c f13b 7cba bf34 a9bd 1aa8 413c
00000290: 9831 d93d 3248 903d d589 aebd 4577 b83d
000002a0: 6255 53be e872 8c3d cbf7 063e 8395 6dbc
000002b0: 7bb0 7b3c 4b32 213e f31e 933d 1ede 4c3e
000002c0: f41d a73d 3e73 c3bd 0ab2 c8bc e2b4 813c
000002d0: 47c4 753c 3429 893d 0ea9 c33c 30e9 1e3e
000002e0: d055 233e 0a3e 49be d305 1cbe 8218 633d
000002f0: 4c8d 0dbe 0512 59bd 3a10 563e 11c6 033e
00000300: 9fae 2c3e 3072 23be 3af0 183d 648a 093e
00000310: 5f73 ddbd 9b03 d03d 7eba 09be 9b81 f73d
00000320: e9f3 4a3e 6aad b5bd 9b1b 03bc b251 d03d
00000330: c788 133e 9db0 b1bd d43f d73d 8d40 0abe
00000340: a6c6 10be c0d4 44be 9ecd e83d e349 3f3d
00000350: ad3e afbd c67e 783c 07ba b4bd af0f 313d
00000360: 035f 02be f9f4 733d 32a5 263d 83c8 613c
00000370: 527b 59bc 6b7c f83d 364e acbd 5a22 d9bd
00000380: 1d69 dbbd 3282 1bbd 5f6d 85bd 4ee9 0f3d
00000390: 3bb0 6b3d ab88 a13d 3c1e 1d3e 44f3 213c
000003a0: e54d 15bd a10f 5bbe 644f 0dbe 4529 a1bc
000003b0: a483 41be ddc0 afbd 628a 0cbe 1086 1a3e
000003c0: 8b82 aebc 5f02 54bd 00f9 0abe e0d1 15bd
000003d0: 5987 27be ee3f ac3d 61eb 07be df33 4d3d
000003e0: 20ba 1d3e e0cc 09be db53 27be d2cd 903d
000003f0: 67ae babd 1963 b7bd 4165 20bd 93bc 65be
-0.12067636 0.0032386757 0.0450083 0.049573455 -0.020302549 0.11859594 -0.12797761 0.032163147
0.07099202 -0.0065966193 -0.10238796 -0.09584589 -0.036870077 -0.05140388 -0.036118228 -0.081561945
0.014064677 0.09199422 0.125837 -0.14143205 -0.08931221 -0.083857775 0.10588018 0.09549861
0.07606588 0.025565438 0.1590004 0.15757734 0.052279748 -0.05540411 0.13220893 0.019656815
0.025694886 -0.1339906 0.022575056 -0.16507822 -0.20426302 0.060085118 -0.15380101 -0.14273919
0.09777985 -0.1424377 0.021092834 0.14546463 -0.124555625 -0.08131333 -0.15839028 0.07744487
-0.13358085 0.07401724 -0.08650031 0.10884467 0.09473055 0.1190231 -0.087188326 0.034366354
0.12790217 -0.022245182 -0.028221978 0.05615596 -0.04463903 0.05865824 -0.08063289 0.01208653
0.08176035 0.06117462 -0.07316514 0.015799314 0.15931682 -0.060784154 0.058178846 -0.09309249
-0.015638884 -0.03785387 -0.002836321 -0.13725775 -0.12547863 0.031559728 0.0022208337 -0.109490916
-0.09204114 0.014185909 0.026067786 0.047144428 0.18785948 -0.11686515 0.07332015 0.1381452
0.082988024 -0.09320411 0.08739811 -0.037569292 0.005168589 -0.20975792 0.10236557 -0.15193738
0.14943978 0.16062976 0.11419772 -0.05493099 -0.12866712 0.05630636 0.11666445 0.08922011
-0.21889222 0.124315046 0.024338374 -0.119160734 -0.004501134 0.12686107 0.12899688 0.052319188
0.100301616 0.071235605 0.0456744 0.09033406 0.037712395 -0.13356477 0.13218589 -0.06720201
-0.07753342 -0.21865095 0.15963867 -0.053787746 -0.03276185 0.010037426 0.11579216 -0.13131009
-0.20287426 0.06560976 -0.08263562 -0.122410595 0.08230021 0.018123081 -0.035917386 0.0015529299
0.00052226445 -0.046807062 0.04549945 -0.0036591878 -0.0042551477 -0.0014425578 0.0045360643 -0.0006109546
-0.045131397 -0.052513383 0.032782782 0.054726455 -0.00062213326 0.036595143 0.019030176 0.023777213
-0.022343306 -0.0002331529 7.7911565e-05 -0.004430839 0.032444928 0.00049965014 0.02594733 0.0023411664
0.024831604 -0.0009621969 -0.08262014 0.011819864 0.106051624 0.0704502 -0.08522383 0.09007124
-0.2063804 0.06857854 0.13180463 -0.014500978 0.0153619 0.15741841 0.071836375 0.20006606
0.0816001 -0.09543465 -0.024498958 0.015833322 0.015000409 0.06697312 0.023884322 0.15518641
0.15950704 -0.19652572 -0.15236597 0.055443294 -0.13823432 -0.0529957 0.20904627 0.12868525
0.16863488 -0.15961528 0.037338473 0.13431698 -0.10813021 0.10156938 -0.13450047 0.12085267
0.19819607 -0.08870967 -0.008002187 0.10171832 0.14407645 -0.086762644 0.10510221 -0.13501187
-0.14138278 -0.19221783 0.11367343 0.046701323 -0.08556876 0.015166944 -0.088245444 0.043227848
-0.12731557 0.059559796 0.040684886 0.013780716 -0.013274031 0.12133106 -0.08413355 -0.10602255
-0.10713408 -0.03796596 -0.065150015 0.035134606 0.057541113 0.078873955 0.15343565 0.009884659
-0.03645124 -0.2139268 -0.13799816 -0.019673 -0.18897873 -0.085817076 -0.13724664 0.15090203
-0.021302482 -0.051760074 -0.13571548 -0.036577106 -0.16360225 0.08410631 -0.13273384 0.050098296
0.15403032 -0.1345706 -0.16340582 0.07070507 -0.09115296 -0.08954448 -0.039159063 -0.22435217

hb.in_conv.0.bias f4 [16]
00000000: cbd5 a0bd b448 f43d 3a56 fdbd 86d6 0e3d
00000010: 7940 b6bd 55b6 53bd d866 3a3e 4866 8ebd
00000020: d8e3 cebd 3366 d03d 9867 273d 46fa b7bc
00000030: 1c23 c03d a300 2bbe d7ec 52be d7c0 803d
-0.07853278 0.119279295 -0.12369962 0.034872554 -0.08899016 -0.051687557 0.18203294 -0.06953102
-0.101020515 0.10175743 0.04087028 -0.022458207 0.093816966 -0.16699462 -0.2059816 0.06286781

hb.blocks.0.0.weight f4 [16, 16, 3, 3]
00000000: adae 9b3c 434f e7bb f3d1 8e3c 37fd 223d
00000010: ab66 a0bc 3215 c73c c774 5c3c 084b 073c
00000020: a6d8 98ba 15e4 4dbc c504 b33d 2f7f 953d
00000030: 343f 1fbc 3ad8 3a3d 8619 d6bc bcdc 07bd
00000040: 0580 ac3c 9f29 063d 8d17 773c 1e19 3f3d
00000050: 490d 233d 2471 843c 9505 b6bb 71e9 bb3c
00000060: cabc 913d b014 be3c c0a2 acbb 0f1b 79bc
00000070: 408c f6b9 982c ab3c c6ed 4e3d 20bc a2bd
00000080: 8a54 62bb 9aa0 febc f676 1d3d 1513 31bb
00000090: 0b1a 093d f7e1 2d3c 0895 d5bd 8d23 bdbb
000000a0: 8372 5c3d a009 c33c af65 c2bd 4662 d23b
000000b0: b3a8 33bd fa51 e231 e145 7db7 bee2 31b9
000000c0: 0930 0f3a 06cf 7033 6240 5f37 ab51 0a36
000000d0: 7757 39b6 64a9 91b7 94db 83bd 3637 683d
000000e0: 8a69 5fbd d5a1 1abd 7ec7 bb3d ba5f ad3d
000000f0: 13c4 693c c508 93bd dc8a 55bd 674d c93d
00000100: ec2f 68bd b50f 9d3d 3ea2 c93c c9d2 073e
00000110: 4005 13bb 5006 cebd 4b4f aa3c 1e69 bebd
00000120: 86bd b23d 9f9a b73d 61be c3bc 2a13 493b
00000130: 896a c3bc e3ec a63c e3d8 b8bc ba5c f53c
00000140: 90f3 4abd b23d 303d c19f 5a3d e662 f03c
00000150: 3112 7d3d ed68 803c ccd2 bdbd a933 c3bc
00000160: a93b 953d 8225 00bc 1d1d 033d 8e66 673d
00000170: e49b 893c 43b9 693d fc00 29bd 40ef e13d
00000180: 5501 c13b 2446 c33d d73d aebd 2ea3 d424
00000190: a137 14b0 1283 c2a4 cee3 e1b7 bf8b ac32
000001a0: 5d7e 4fb7 754f 8b26 79f8 c834 e471 32b8
000001b0: b24b dbbc a0c0 58bd 88ff 75bd d2f7 35bd
000001c0: 2349 853d bbba 81bc fde8 593b b66f c43b
000001d0: 6db9 dc3c efe3 8c3b b177 283c 6a57 e63b
000001e0: b24e f23a c730 95bb 6c05 063c 1b31 dbbb
000001f0: 88ad 15bc 9dfe baba 2eb3 9fbc ad67 943d
00000200: 92a8 cdbc c5ac 80bd 3ce5 fcbc 2d6c e9bc
00000210: 172a 2a3d cfc9 553c 2908 cf3c faee 4e3d
00000220: 1e6a a0bc 041b eb3d 6685 d6bd add3 90bd
00000230: d570 ddbd 950f fb3d 866d 413c 907b 693d
00000240: 7550 21bc c2f4 88bc d19d 93bb 742b a1bb
00000250: b694 4dbc d438 07bc 688f de3c 15fb 59bc
00000260: 74bc e4bb 5922 59bc d556 22bd 8212 12bd
00000270: d5d4 7dbc f9e9 ef3c cb91 9a3c 9609 b8b9
00000280: b934 e93c 5728 9f3c 850c 203c b5f1 533c
00000290: a89d 693b aee8 03bd b440 1d3d 5f4e 293d
000002a0: 6b9e 4dbd 68a5 353c 9912 0e3d fda5 993c
000002b0: 7a73 62bd b6cb 1ebd efb8 8e3d d3f9 33bd
000002c0: 7758 99ba 873d d03c 47ce b93d 9c24 633d
000002d0: 9d38 463d aa96 db3a ab1c fd3c 1e40 5e3c
000002e0: 0956 983d ebbf 703d daf9 7f3d 2ddc 8c3d
000002f0: 8846 933c 129a bc30 635c f032 a6cc 622b
00000300: c2af 8ab6 fe61 1b34 4c7f 7533 213c 96b5
00000310: 354a 3f36 bb31 2439 33c0 9dbd f92b f539
00000320: 196b 893d c217 f03c dc51 16bd 14cb b1bd
00000330: e3aa fcbc 44a1 913b 4e1f 90bd a741 7fbb
00000340: f962 c23d b5b6 5d3d 9b2c b7bc 9bc0 d2bb
00000350: a279 a73d a354 6abc 207e c1bc 3c3a d1bb
00000360: 38c7 02bc 4d17 15bd 082f a83d 5e8b 333c
00000370: 772e 6c3d 03b5 e33c a294 253c c4e2 123d
00000380: 965d efbc 7ba2 0dbd 13ab ed3c 2fc0 763d
00000390: d85a 093d e5b8 33bd 094c 53bd e71d aa3c
000003a0: e17b 713d 3739 22bd 5efa 4ebd adb6 ae3d
000003b0: b26c 163d b5a5 423d 48db f33c 079e ce3c
000003c0: 5dbf e43c 1ab3 6dbc e491 cbbc 5142 b934
000003d0: 3e9d 29b8 83af 1a36 b667 1a33 9c17 1922
000003e0: a328 4739 7ac8 5139 5dcb 1e34 c549 d824
000003f0: b059 863d 410b 853d 09b9 673d 1024 26bd
0.01900419 -0.0070590093 0.017434096 0.039792266 -0.019580206 0.024302099 0.013455576 0.008257635
-0.0011661246 -0.012566586 0.08741144 0.07299649 -0.009719659 0.045616366 -0.026135217 -0.033169493
0.021057138 0.032754537 0.015081299 0.046654813 0.03980759 0.01616723 -0.0055548646 0.022938462
0.07116087 0.023203224 -0.0052684247 -0.015204205 -0.0004702527 0.020895287 0.050519727 -0.07946038
-0.0034535252 -0.03108244 0.038443528 -0.002701943 0.033472102 0.010612956 -0.10428816 -0.0057720602
0.053820144 0.0238083 -0.09492051 0.0064204065 -0.043862056 6.5867853e-09 -1.5096245e-05 -0.00016964503
0.0005462175 5.606764e-08 1.3306826e-05 2.061114e-06 -2.761806e-06 -1.7364226e-05 -0.064383656 0.05669328
-0.05454401 -0.03775199 0.091689095 0.08465524 0.014267939 -0.07179407 -0.05213438 0.098292165
-0.056686327 0.076690115 0.024613496 0.13264002 -0.002243355 -0.10059798 0.020789763 -0.09297393
0.08727555 0.089650385 -0.02389449 0.0030681589 -0.02385451 0.020376628 -0.022564357 0.029951442
-0.049548686 0.043027587 0.05337501 0.029344033 0.061784927 0.015675033 -0.09268722 -0.023828344
0.0728677 -0.007821443 0.032010186 0.05649429 0.016797967 0.057061445 -0.041260704 0.110319614
0.0058900514 0.09534863 -0.08507889 9.221678e-17 -5.392114e-10 -8.435613e-17 -2.692817e-05 2.0086985e-08
-1.2367583e-05 9.666599e-16 3.743369e-07 -4.2544576e-05 -0.026769493 -0.052918077 -0.060058147 -0.044425793
0.0650809 -0.01583611 0.0033250444 0.0059947623 0.026943887 0.0042996327 0.010282443 0.0070294635
0.0018486588 -0.004552934 0.008180004 -0.0066892034 -0.009135611 -0.0014266554 -0.01949462 0.07246337
-0.025104795 -0.06282953 -0.030871026 -0.028493965 0.041544046 0.013048603 0.025272446 0.050520875
-0.01958185 0.11479762 -0.104746625 -0.07071624 -0.108125366 0.122588314 0.011805898 0.057002604
-0.009845843 -0.016718272 -0.004504897 -0.00491851 -0.0125476625 -0.008253295 0.02716799 -0.0133044915
-0.006980473 -0.013252818 -0.03963359 -0.03566218 -0.015492638 0.029286372 0.018868348 -0.00035102357
0.028467523 0.019428415 0.00976861 0.012936045 0.003564695 -0.032204323 0.038391784 0.041334506
-0.050199907 0.011086799 0.034685705 0.018755907 -0.05528591 -0.038768493 0.06968867 -0.043939423
-0.0011699338 0.025419964 0.090725474 0.055454835 0.048393834 0.0016753275 0.030897459 0.013565091
0.07438285 0.058776777 0.062494136 0.06877933 0.017977968 1.372259e-09 2.798169e-08 8.0575336e-13
-4.1331814e-06 1.4471149e-07 5.7159284e-08 -1.1193371e-06 2.8504412e-06 0.00015658785 -0.07702675 0.00046762804
0.067098804 0.029308204 -0.03669916 -0.08681312 -0.030843204 0.004444273 -0.07037221 -0.0038949044
0.09491534 0.05412932 -0.022360137 -0.006431652 0.081774965 -0.0143024055 -0.023619711 -0.006385116
-0.007982068 -0.036399174 0.082120955 0.010958521 0.0576615 0.027796274 0.010106238 0.03586079
-0.02921943 -0.03457878 0.029012239 0.060241874 0.0335339 -0.0438775 -0.051586185 0.020766212
0.05895603 -0.039605346 -0.050531738 0.085309364 0.036724754 0.04752131 0.029767647 0.025221838
0.02792328 -0.014508033 -0.02484984 3.4507187e-07 -4.0439183e-05 2.304995e-06 3.5950244e-08 2.0747865e-18
0.00018993257 0.00020006477 1.478888e-07 9.380004e-17 0.06560075 0.06496287 0.056572948 -0.040561736

hb.blocks.0.0.bias f4 [16]
00000000: 13e0 d83c 4683 57bb 37d8 6abc 4674 f5bc
00000010: 9f33 a4bc 09fc a6bc dfaf a83c 4fc3 673d
00000020: 435c 09bc 4940 0b3d 24e8 f2bc 0549 2c3d
00000030: 119a 04bc 952e b8bb 165c 83ba 4acd 98b9
0.026474034 -0.0032884642 -0.014333776 -0.02996267 -0.020044146 -0.020383852 0.020591674 0.056582745
-0.008383813 0.033996854 -0.029651709 0.042061824 -0.008093373 -0.0056207874 -0.0010021951 -0.00029144651

hb.blocks.1.0.weight f4 [16, 16, 3, 3]
00000000: c049 693c ee19 2a3d 722c 0ebc d3cb eb3c
00000010: 4881 833d a203 adbd 8a2c dfbc adfd 3ebd
00000020: 0795 6d3c 196a 02bd 6e72 89bd c32c 5a3b
00000030: 2ba8 fc3c a6b9 98bc 016b 2dba 1b3b 103d
00000040: f24e 92bd 42c4 c1bc 8fe7 253b d4de 003d
00000050: bf82 393c 466f b53c 6434 9a3c fce3 393b
00000060: ad50 0c3d 5a44 873c 565d 94bc 4959 0abd
00000070: 978d 8fbc 7c02 023d 3d41 b6bc cc04 15bd
00000080: 429a 6ebc 8758 02bd bbe7 73bd 82d9 463d
00000090: cc65 36bc fec2 8ebc 2126 503b 878c 6a3c
000000a0: c1f2 54bd a04c 773c 10b6 11bc 0cda eabc
000000b0: e928 06bb 6eb0 5fbc 9635 0639 9833 343c
000000c0: 9ccc aebb 128f 843b 6a35 a33c 35ea 98bc
000000d0: 20d0 a13b 5603 803c 0908 353b d9f4 2b3d
000000e0: fcfa 063b ea25 5abd 7aeb 7e3d d928 b43c
000000f0: 8ceb bd3c cfcf 1ebd a788 a639 c1fb 35bd
00000100: 58dc ad3c c073 9a3d 9d6d 803c 7881 67bd
00000110: a4e7 043d 5b17 4ebb ffc8 b13c bd3a 823c
00000120: e233 9ebc 0b48 163d 6824 1bbb f9bf a2bc
00000130: 208b ddbb a7b0 a6bc 2884 e73b 773a 063c
00000140: df41 153c 0fcb 813d fb8d 1abd 4d4d b93c
00000150: 2735 e2bc 7c7d 1b3b 67ef a4bd 10ed 1abd
00000160: d3fd 2dbd 6bb5 35bd 77f6 153d 2bd9 27bc
00000170: 6b47 5c3d 3e47 7b3d d514 413d 0877 87bd
00000180: 52d9 273d a238 37bc ecee 1f3d 6f07 07bd
00000190: b425 24bd 7b88 12bd 410a 093d d744 75bd
000001a0: bc8a 32bd a742 2a3d cb5a 653d 29f3 3fbd
000001b0: ad59 acbc e803 64bd 2ab9 9ebd ed8d 963c
000001c0: a12e f9bc 1377 ddbc ef19 523d 3d62 52bd
000001d0: c14f 1d3d 4e6d bb3b 22b9 243c 6c23 4dbd
000001e0: 548a c43c 290e 163d 87ff 0abc 08dd 2cbd
000001f0: e511 df3b f6e7 57bd 6c82 883c da12 6abc
00000200: 1875 583a 21e8 963c 11d5 bfbc d94a 8b3a
00000210: 1890 f13c ce03 b33a 28fc 14bc b129 073c
00000220: 0bc1 8fb9 ba5f 563b e3a8 ef39 d22e eab9
00000230: 1d37 ab3b ea61 e7b8 db5d 613a 82ec d33a
00000240: b0cc eeb6 47ef a1b9 82d2 102a 5d22 0b38
00000250: ee91 05b3 5ef1 d331 c124 4733 4837 0eb4
00000260: 890e f638 4619 4bb6 9395 6cb0 6969 08ac
00000270: 9467 d3b7 363f 8eb9 2362 49b3 42ad ee39
00000280: 9603 0135 d5da 6c33 ace7 d0b2 65cc da39
00000290: 60e9 7036 932c adb8 c3bc e0ab 3b40 0832
000002a0: 4325 c5b3 08ef 0ab2 f6b8 5c33 a920 a7b2
000002b0: ec66 85b0 df2f 162d eb2f 86b3 58f1 5738
000002c0: 1e8b 1233 51ba ffb8 3988 72b4 874e a6b8
000002d0: 402b a8b6 a160 0832 74ba 3138 0b6a a231
000002e0: 8610 8537 ddcf 2831 5910 5235 dbca 8eb5
000002f0: af4c f5b6 6455 0db3 daaf 20b6 9354 34ab
00000300: 34e5 a0b8 94a3 61b3 50f5 4b31 05b6 2837
00000310: 67dd 92b5 4514 2d32 ebfa a1b9 1977 d033
00000320: a155 4b2c 7b0e bdb4 e407 2fb6 af1b 9634
00000330: e36f 2034 368c 9333 d33a eeb9 9cbe e2b6
00000340: 7817 3b32 5f5e efab 22bd 49b4 5910 9b33
00000350: 3ff9 a9b3 4491 7733 948d e9b8 1876 6fb5
00000360: 4156 bdb3 a4af e7b2 61ac 96aa c127 89b3
00000370: 5bc6 9db9 9ebd 0d33 af5d 3537 4248 e5b2
00000380: ff3f 9934 ede9 bf31 c55f 89b2 5871 d0aa
00000390: 706e cd34 4ea4 bcb6 f823 5634 5958 88b4
000003a0: 615f 8a33 1729 8a34 b2d5 98b8 5952 d532
000003b0: d827 a5b3 5abc feb3 f190 1633 74ac bdae
000003c0: 9ddf 04b9 df98 6338 d912 b735 2429 e632
000003d0: 9dc7 0eb3 a91c 7f35 6e17 dbb3 1c62 8ab3
000003e0: 65bc 9638 a08d d7b2 e57a 78b4 1756 0bb7
000003f0: 83c8 2db4 f211 9ab2 ff25 e4b9 72b6 5cb4
0.014238775 0.041528635 -0.008677589 0.028783714 0.06421143 -0.084479585 -0.027242918 -0.046628643
0.014500863 -0.031839464 -0.06711279 0.003329084 0.030841907 -0.018643212 -0.0006615371 0.035212617
-0.07143964 -0.023653153 0.0025315022 0.031462505 0.011322676 0.022147786 0.01882381 0.002836465
0.034256626 0.016512085 -0.018110912 -0.033776555 -0.01752357 0.03174065 -0.022247905 -0.036381528
-0.014563145 -0.031822708 -0.059547167 0.048547275 -0.011132669 -0.017426964 0.0031761008 0.014315731
-0.05198932 0.015093952 -0.008893505 -0.028668426 -0.0020471162 -0.013652904 0.00012799198 0.010998629
-0.00533445 0.0040453756 0.01992293 -0.018666366 0.0049381405 0.01562659 0.0027623198 0.04198155
0.0020596376 -0.053258814 0.062236287 0.021992134 0.023183607 -0.0387724 0.000317638 -0.044429544
0.021223232 0.07541609 0.015677268 -0.056519955 0.032447472 -0.0031447026 0.021702288 0.01589715
-0.019311849 0.0366898 -0.0023672823 -0.01986693 -0.0067609698 -0.020347906 0.007065315 0.00819265
0.009109943 0.063375585 -0.03773306 0.022619868 -0.027613236 0.0023725918 -0.08053475 -0.037823737
-0.042478394 -0.044362467 0.036612 -0.010244648 0.053779047 0.06134724 0.047139008 -0.066145
0.040978737 -0.011182936 0.039046213 -0.032966074 -0.04007502 -0.03577469 0.033457045 -0.059880104
-0.04358934 0.04156747 0.05599479 -0.046862755 -0.021038854 -0.055667788 -0.07750161 0.018378222
-0.030417742 -0.027034318 0.051294263 -0.05136322 0.038406137 0.0057198172 0.010053905 -0.05008261
0.023991741 0.036634598 -0.008483774 -0.04220298 0.006807553 -0.05271145 0.016663752 -0.014286721
0.00082571944 0.018421235 -0.023417028 0.0010627165 0.029487655 0.001365775 -0.009093322 0.008249686
-0.00027418914 0.0032710866 0.00045711463 -0.00044666842 0.005225076 -0.00011033176 0.00085970544 0.0016168507
-7.1167815e-06 -0.00030886589 1.2862804e-13 3.3172186e-05 -3.1099198e-08 6.1683485e-09 4.6366726e-08 -1.3244892e-07
0.000117329015 -3.0264068e-06 -8.606886e-10 -1.9385277e-12 -2.5201392e-05 -0.00027131446 -4.6888214e-08 0.00045523985
4.8061463e-07 5.514706e-08 -2.4319739e-08 0.00041732486 3.589863e-06 -8.2575854e-05 -1.5968549e-12 7.930846e-09
-9.180305e-08 -8.087007e-09 5.1390963e-08 -1.945621e-08 -9.706276e-10 8.537142e-12 -6.2485775e-08 5.1484763e-05
3.41198e-08 -0.00012194052 -2.2587564e-07 -7.930124e-05 -5.011825e-06 7.938213e-09 4.2373737e-05 4.7268762e-09
1.586253e-05 2.4565374e-09 7.8254885e-07 -1.0638863e-06 -7.310496e-06 -3.2906783e-08 -2.3944217e-06 -6.4066217e-13
-7.672087e-05 -5.253567e-08 2.9679832e-09 1.005596e-05 -1.0942284e-06 1.0074534e-08 -0.0003089526 9.7074185e-08
2.8895569e-12 -3.521453e-07 -2.6081625e-06 2.795982e-07 1.4941865e-07 6.870725e-08 -0.00045438725 -6.7575147e-06
1.0890169e-08 -1.7008165e-12 -1.878839e-07 7.2207236e-08 -7.9150134e-08 5.7641287e-08 -0.00011136677 -8.9206287e-07
-8.816688e-08 -2.6971811e-08 -2.6764964e-13 -6.386791e-08 -0.0003009316 3.3001577e-08 1.0810253e-05 -2.6691968e-08
2.8545034e-07 5.585426e-09 -1.599245e-08 -3.702687e-13 3.826458e-07 -5.621964e-06 1.9943388e-07 -2.5396255e-07
6.443475e-08 2.57344e-07 -7.287729e-05 2.4833911e-08 -7.690659e-08 -1.1862058e-07 3.505642e-08 -8.625359e-11
-0.00012671803 5.426339e-05 1.3640048e-06 2.6794233e-08 -3.32435e-08 9.503661e-07 -1.0202244e-07 -6.443972e-08
7.1876486e-05 -2.5093698e-08 -2.3141509e-07 -8.30509e-06 -1.6184826e-07 -1.793612e-08 -0.00043515858 -2.055547e-07

hb.blocks.1.0.bias f4 [16]
00000000: 9a51 03bd b827 6333 0b01 95bc f752 f435
00000010: 79d3 3bbc 7749 9e3d 7ece 973d 38f3 debc
00000020: 5606 7cbc bbea 143d 72eb 303d 103d 2a3b
00000030: c2d5 49bd 9e9f 533d 4639 d73c 409f a2bc
-0.032060243 5.288868e-08 -0.018188974 1.8203563e-06 -0.011463993 0.07728856 0.07412432 -0.027215585
-0.01538237 0.03635667 0.04319329 0.0025976337 -0.04927612 0.051665895 0.026272427 -0.019851327

hb.blocks.2.0.weight f4 [16, 16, 3, 3]
00000000: 2c22 5fbd 2fa1 703d d736 31bd 4caa 243d
00000010: dcc7 873d 1597 693c a12f 99bd 6f76 5cbb
00000020: 7845 083d 0ef1 f5bc 96c0 33bd 959f c43d
00000030: 7915 8e3b a9cd 24bd 3041 383d 5c19 2a3d
00000040: e6b8 97bd f04d b2bd c132 8bbd 1266 873d
00000050: af27 a8bd bb48 4e3d b93c 9d3d b5ac 133d
00000060: 5356 85bd ea35 343c 49a0 29bd 2a48 c2bd
00000070: 5240 cb3d 30a5 debc 49c9 4cbd 3289 653d
00000080: d1ee 833d 221b 00bd d2fd 76bd 9d98 c038
00000090: c8b4 bc3c d5c0 6e3d 6af1 0abd 391f b53d
000000a0: f705 e1bd 12ed fc3c 2d97 c33c 15e5 4d3d
000000b0: b724 ee3d 63f5 8c3d cb21 0f3d 9893 27bc
000000c0: 51eb 913d 5414 e83b b916 a03c ca3c 643d
000000d0: f2aa e1bc cbf5 a9bc 7b46 0fbd 38bc 713c
000000e0: e189 7f3d c06f 733c 77e8 c13d feaf 9bbd
000000f0: dcdd babb 3281 4f3d 47ec 85bc c53f 5a3d
00000100: b566 3a3d cfaf 0cbc b94f 80bd dfe1 24bd
00000110: 74df 5dbc e5ad afbd 15e6 24bd 3a44 5d3b
00000120: 16eb e6bc d719 83bd f043 f73c df6d b93d
00000130: 5fce 4fbd b96f 0e3d e688 d9bb f8ce 453d
00000140: 66cc 463d 7b4e 9c3c 7ac5 883d 8194 373d
00000150: 3fae beba 2f86 43bd b65a 34bd ea78 4b3d
00000160: 1cbe 94bd add2 a0bd 2d9d af3d afe5 393d
00000170: 433d 303c c4d6 d0ba 597c 74bd 9453 b33d
00000180: b8a2 4dbd a0c9 2ebd 2df0 86bd d54d 823d
00000190: 033a 1fbd cc97 ddbb 2942 6d3d fef2 06bd
000001a0: 761a 41bd da0a 7ebb 29d6 8e3d d84e 153d
000001b0: 0339 3ebd 179a af3d e2b9 0e3d 1aa3 463d
000001c0: 9443 38bd 2ada 223d 8470 ba3d 7faf 933c
000001d0: 1d95 e437 56de 413d 8008 85bd b9b5 7bbd
000001e0: a02c b93d 7e70 553d 1f79 683d c9b4 44bd
000001f0: 78cb 7fbc 26f7 f13c 16b3 81bc a784 a8bd
00000200: e0da 453d 1ae7 953d 3f9b 9d3d ffd4 f23b
00000210: 836d 3abd 5b1a a3bc 90d7 953c f234 d13c
00000220: 5dbf 4cbc d148 8ebd 2719 1abd 7fbd 9cbd
00000230: bfe1 493c be6a 7b3b b224 36bd 0068 093c
00000240: 2b3a d9bc 12f5 a43d 060a 4d3d 40fd 063d
00000250: 87b6 fc3c b34d da3c 173a 34bd cece 543d
00000260: f319 773d a761 813d 58fd 14bc 1de4 82bd
00000270: 9a69 b4bd f09c 8b3d 1185 7a3c fe36 b03d
00000280: f441 093d 2e0e 0e3d 2690 29bb 95aa 853d
00000290: 8375 1a3d d6fa 66bc 2dd8 8bbd bff9 de3c
000002a0: 1a53 903d 267e a8bd db59 c2bb 4037 d03c
000002b0: a31f 823d 934b 6fbd f0e9 c0bd 6f75 27bb
000002c0: 86e9 b1bd 137a 04bc c58f d23c afbc e6bc
000002d0: b5f8 e63d ceab 6b3d 13cd 9cbc 3f97 5c3d
000002e0: 101f 91bd 3941 98bd 478e cd3d 137e aabb
000002f0: 3379 17bd bb6a c63c ff76 edbc f797 48bd
00000300: 6a63 523c fce8 203d dea3 9ebd 2fe7 67bd
00000310: 394a 293d 0395 1a3d cc3d c83c 0d77 a8bd
00000320: dca8 fd3c 3455 11bc f31f babd c533 abbc
00000330: b36a 793d d6b9 bc3c 67e2 8d3d 9023 eebc
00000340: 5817 1bbd 961f 9e3d 957a 4b3d ce1c 86bd
00000350: de2c 943d a00b 76bc 781b 60bd acd1 d73c
00000360: 2ff4 223d 9bba c4bd cef9 93bd 2d7e b1bb
00000370: d9f3 21bd a04d 5e3d 2e3d 9dbd 49c1 873c
00000380: 5290 993c 42b7 d038 5ef6 aa3d 3778 52bd
00000390: 204d ac3c 6832 4dbd 62ff efbc 9148 acbc
000003a0: b0d9 f5bc 7969 ac3d 8058 813c d802 9dbc
000003b0: 4d84 913c b3ba 0b3d 1810 67bd b4a8 6cbd
000003c0: 1bb7 31bd aa80 593d 1f06 50bc 367e a4bd
000003d0: 3ba9 f03c a436 3f3d 96af 813c e895 163d
000003e0: d6ad 46bc 3756 b8bd d161 163c 2360 3cbb
000003f0: 2e76 f7bc cfed 3fbc 3f52 88bd 65b4 63bd
-0.05447595 0.058747467 -0.04326519 0.04020147 0.06629917 0.014257212 -0.074797876 -0.0033639928
0.033269376 -0.03002217 -0.043884836 0.0960075 0.004336056 -0.040235195 0.044984043 0.04152809
-0.074083135 -0.08706272 -0.0679679 0.06611265 -0.08210694 0.05036233 0.076775976 0.036053378
-0.06510606 0.010999182 -0.041412625 -0.094864205 0.099243775 -0.027178377 -0.049996648 0.056039043
0.06442035 -0.031275876 -0.060300656 9.1837e-05 0.023035422 0.058289368 -0.033921637 0.08843846
-0.10987466 0.030874763 0.023875797 0.050267298 0.116280966 0.06882741 0.034944337 -0.01022806
0.07124961 0.0070825014 0.019542085 0.055722035 -0.027547333 -0.020747086 -0.034979325 0.0147543475
0.06238735 0.014858186 0.09468167 -0.07601927 -0.005702717 0.05066032 -0.016348017 0.05328347
0.045508105 -0.008586838 -0.06265206 -0.04025447 -0.013542045 -0.085780896 -0.040258486 0.003376259
-0.02818827 -0.06401413 0.030183762 0.090541594 -0.05073392 0.034774516 -0.006638634 0.048293084
0.048534773 0.019080391 0.06678291 0.04481936 -0.0014547779 -0.04773539 -0.04403182 0.04967586
-0.07262823 -0.07852683 0.08574901 0.04538506 0.010756793 -0.0015933146 -0.0596889 0.08756176
-0.05020401 -0.042672753 -0.06588779 0.063625015 -0.038873684 -0.0067624804 0.057924423 -0.03294658
-0.047144376 -0.0038763792 0.069744416 0.036452144 -0.04644109 0.08574312 0.03484524 0.04849539
-0.044986323 0.03975884 0.09103492 0.018028019 2.7249154e-05 0.047331177 -0.06495762 -0.0614526
0.09041715 0.052109234 0.056756135 -0.048023973 -0.015612476 0.029536795 -0.015832465 -0.082284264
0.04830444 0.0731947 0.076956265 0.007410645 -0.045514595 -0.019910028 0.018291265 0.025537942
-0.012496796 -0.069474824 -0.037621643 -0.07653331 0.0123218885 0.0038363184 -0.04446859 0.008386612
-0.026516994 0.08054556 0.050058387 0.03295636 0.030848755 0.026648378 -0.04400071 0.051955037
0.06032748 0.06317454 -0.009093605 -0.063911654 -0.088092044 0.06817043 0.015290515 0.08604239
0.033510163 0.03468149 -0.0025873273 0.065266766 0.037709724 -0.01409789 -0.06828342 0.027218698
0.070471 -0.08227186 -0.0059311218 0.02541697 0.063536905 -0.058421683 -0.0941962 -0.0025552174
-0.08687119 -0.008085745 0.02570332 -0.028166143 0.11277906 0.057536893 -0.019140756 0.053855177
-0.07086003 -0.07434315 0.10036903 -0.0052030175 -0.03698082 0.024220815 -0.028987406 -0.04897305
0.012841085 0.03928469 -0.07746099 -0.05661696 0.04133055 0.037739765 0.02444353 -0.08225832
0.030964307 -0.008870412 -0.09088125 -0.02089871 0.060892772 0.023037832 0.069279484 -0.029069692
-0.03786406 0.07720868 0.04967745 -0.06548463 0.0723512 -0.01501742 -0.054713696 0.026345097
0.039783653 -0.09605905 -0.07225381 -0.0054166527 -0.039539192 0.054273248 -0.07677685 0.016571658
0.018745575 9.952347e-05 0.08347772 -0.051384177 0.02103287 -0.0500969 -0.02929658 -0.021030696
-0.030011028 0.08418555 0.01578927 -0.019166395 0.017763281 0.034113597 -0.056411833 -0.057778075
-0.043387514 0.05310122 -0.012696772 -0.08031885 0.02937757 0.04668297 0.015830796 0.036764055
-0.012126407 -0.09000819 0.009178595 -0.0028743825 -0.03020772 -0.011714413 -0.06656312 -0.05559196

hb.blocks.2.0.bias f4 [16]
00000000: d0ce 953c f98f 433d 751f 223d 02ce 9dbc
00000010: 8487 66bc 220d a5bc 3c51 15bd 40c8 20bc
00000020: 0bf4 acb8 d77b 7fbd 45c1 4a3d fee5 49bd
00000030: 56fb c338 eab8 4cbd c2ce 82bc 2e6a 84bd
0.018287092 0.047744725 0.03958078 -0.019263271 -0.014070395 -0.020147864 -0.036454424 -0.009813368
-8.247056e-05 -0.062373962 0.049500722 -0.049291603 9.3451396e-05 -0.049981035 -0.01596773 -0.06465565

hb.out_conv.0.weight f4 [3, 16, 3, 3]
00000000: 9205 84bd c15c ff3c 45ac d33c 6f63 693d
00000010: 77dd be3c a89c c83d 1e81 bbbd ce09 0cbd
00000020: 5341 143d 5270 b9bb 6126 b0bd e3d2 913b
00000030: e8fe 033d a5c0 973c 5ca2 29bd 0b53 793d
00000040: 69de fa3c f421 28bd e65b 8dbd 830a a43d
00000050: 52a6 0abd d53f a0bd c7a2 da3c e166 a5bb
00000060: 4f27 0dbd bb25 f63c 01a7 643d f41b 03bd
00000070: e05b 96bd 545f 83bc 1ce5 0d3d 8265 8cbc
00000080: 6daf ddbd 8b29 28bc 5fe2 db3b 988e 27bc
00000090: 8e04 5e3b 7fa9 b2bd bff3 94bd dba4 ac3c
000000a0: cee9 a33c 14cb eabc 214a d8bc 7d5b a8bc
000000b0: a27e 5ebc 3c8d 933d d081 21bc ec78 4abd
000000c0: db93 6a3d 22f5 90bd d855 813d 1246 9abc
000000d0: 079e 8fbd 0710 38bd cc77 7dbd c0a8 b83c
000000e0: 3c89 bf3d 876c a5bd 5673 7bbd 9423 75bd
000000f0: 05af c2bd 8853 7e3b f2c8 efbb 593f 37bd
00000100: dc8b c53c 4a85 be3c 319b 31bc 8123 17bd
00000110: 35cf 18bd a4b0 613d e729 853d 903e 5cbd
00000120: 019a e13d d7f6 4abd ed7f 633d b673 2ebd
00000130: 3e5b 0a3d 0890 ad3c c1dd 173a ee7f b9bd
00000140: 8701 9c3c fe66 7fbb e7a6 d63c 4a13 d0bc
00000150: 1dd8 4fbd c8f4 a3bd 2611 843d c4e4 f0b9
00000160: 41fb a53d 9232 80bd 6e33 38bd a5ce 313d
00000170: 6ea8 7bbd b22f babd 0c0c 8a3d 98b8 a13d
00000180: a3cf 583d 4b99 78bd 4bd3 d53c 3517 f4bc
00000190: 8187 553d b1dc 833c 8548 b83c 040b 9f3d
000001a0: c2fb 63bb ba85 503c 81f5 673d 8cd3 8d3d
000001b0: 4b0d 9a3b 2510 83bd 29ca bc3c 7d67 1ebd
000001c0: 3518 b23d c23a 98bc 3013 57bd 5048 3b3c
000001d0: 4ed5 a03d a479 9cbd 0ff3 8bbc 21e8 bbbb
000001e0: bce7 8a3d 7d6d 94bc 7fe3 103c 0e38 05bd
000001f0: 26ad 9f3d 2d11 1b3d 6e94 b43c afb8 a93d
00000200: 67bc ce3d 2304 ec3c 0ce1 033d 137b ad3d
00000210: 5c25 0b3d 6ec7 04bc 14e5 a0bc 6144 913c
00000220: 5ddd 92bc 3c8a 353d d543 2dbd 687c 1f3d
00000230: 79d5 15bd 1e74 423d adac 32bc 0a94 1b3d
00000240: 0ebb 2abd d456 f33c 0508 ee3c 4c64 65bd
00000250: d5bd a8bd fa25 e73c 1609 85bd ae4b 91bd
00000260: 6d1d 6b3d 12f4 943d 38c3 ba3c e9c3 873d
00000270: 5a61 edbc 52fd 453d afab 9f3d 866c adbc
00000280: d256 7f3d 844c 953d dba6 de3b 7fbe 12bd
00000290: d17f 9f3c 4e8f 98bd 6fb1 65bd 8fd7 aabd
000002a0: 6fef ae3d eac0 81bd 81fe 19bd 2f26 db3c
000002b0: f9e4 81bc 103e abbd 48a4 423d 95b2 c1bd
000002c0: a7d5 ce3c 24ac 8ebc 763f 00bd 3b74 ea3b
000002d0: ce92 3ebd de99 86bc d513 3d3d 84ca 23bd
000002e0: d234 063e 7e55 83bd 3868 82bd d528 6dbd
000002f0: 1a0d 073d e7a6 7c3d 56be 80bc c0ff 6dbc
00000300: a1f9 aabd 4fca 8ebc dee4 94bd e64d 003d
00000310: 3e70 b53b d097 4ebd 7364 3f3b c960 3bbd
00000320: 786d bdbc 8f67 1b3d cbe9 30bd 77b7 16bd
00000330: 6d19 12bd b55b 1abd 49eb 323d f5b3 f6ba
00000340: 77ef 80bc 7632 8cbd 33b5 703d ad48 993d
00000350: 4b7b 303d ed45 d4bb 5b91 22bd 21e9 9d3c
00000360: 2a1d cc3d 9bdd c83d fdd0 b7ba 7bbb 893d
00000370: 1ac1 3dbd cc77 37ba 6101 123d b600 053d
00000380: ef32 9c3c e910 563d db77 9ebd c23f 4abc
00000390: 6e94 83bc d021 923d 26dd a73d 0122 8ebd
000003a0: 695e 87bc 173a b03d 46a3 7cbd 1cb2 97bc
000003b0: e8ef 293c ed5d 80bc f4b9 293d cb30 98bd
000003c0: 4692 873d 4613 723d d14c 043d eafe 4c3d
000003d0: 71b9 5c3d 3f1b 823d f03c 853b 702e 033d
000003e0: 94a7 a6bd 1017 e43c f06c 32bd 9d89 3ebd
000003f0: f546 9dbd 2dd8 c43c 5157 00bd 9660 61bd
-0.06446375 0.031172158 0.02583898 0.056979593 0.023298962 0.09795505 -0.091554865 -0.034189038
0.03619511 -0.0056591416 -0.0860107 0.0044501885 0.03222552 0.018524477 -0.041414604 0.06087021
0.030623632 -0.041048005 -0.06902294 0.080098175 -0.03385002 -0.07824675 0.026688946 -0.0050476645
-0.034461316 0.030047288 0.05582333 -0.03200908 -0.073417425 -0.016036667 0.034642324 -0.017138246
-0.108244754 -0.010263811 0.006710335 -0.010226868 0.0033877227 -0.08723735 -0.072730534 0.021074703
0.020008948 -0.028661288 -0.026402535 -0.020551438 -0.013579996 0.07204673 -0.00985761 -0.049431726
0.057269912 -0.070780054 0.063152015 -0.01883224 -0.07012563 -0.04493716 -0.061881825 0.022541404
0.09352347 -0.080773406 -0.06138929 -0.059848383 -0.095060386 0.0038807113 -0.0073176557 -0.044738147
0.024114542 0.023256917 -0.010840223 -0.036899094 -0.037306983 0.0551001 0.06502133 -0.0537706
0.11015702 -0.04955181 0.05554192 -0.04259082 0.03377842 0.021186844 0.0005793237 -0.09057604
0.019043697 -0.00389713 0.026202632 -0.025399823 -0.05074321 -0.08005673 0.06448583 -0.0004594681
0.081045635 -0.062596455 -0.044970922 0.043409962 -0.061439924 -0.090911284 0.06740579 0.078965366
0.052932393 -0.060693067 0.026101729 -0.029796222 0.05213118 0.016096445 0.022495518 0.07765773
-0.003478751 0.012727195 0.056630615 0.06925115 0.0047012917 -0.06399564 0.023045616 -0.038672913
0.086960234 -0.018582705 -0.052508533 0.011430815 0.07853185 -0.076403886 -0.017083673 -0.005734459
0.06782481 -0.018118614 0.008843302 -0.03252416 0.07796697 0.037858177 0.022043433 0.08287179
0.10094529 0.028810566 0.032197043 0.0847074 0.033971176 -0.008104188 -0.019640483 0.0177328
-0.01792782 0.044321284 -0.042301018 0.038937002 -0.036580537 0.04747402 -0.010905427 0.037982978
-0.041682296 0.029704489 0.029056558 -0.056003854 -0.082393326 0.02821635 -0.06495874 -0.07094513
0.05740111 0.07273115 0.022798166 0.06629164 -0.028977085 0.04833729 0.07796418 -0.021169912
0.062338658 0.07289985 0.006794793 -0.035826202 0.019470127 -0.07449208 -0.056077417 -0.08341896
0.08541762 -0.063356236 -0.03759623 0.026751606 -0.015856253 -0.08361447 0.047519952 -0.0945789
0.025248362 -0.017416067 -0.03131052 0.007154969 -0.046526723 -0.016430791 0.04616149 -0.039988056
0.13106087 -0.06412791 -0.063675344 -0.05790027 0.03297148 0.061682608 -0.01571576 -0.014526308
-0.08348394 -0.017430453 -0.072702155 0.03132429 0.005537062 -0.05043775 0.002920416 -0.0457466
-0.023123488 0.037940558 -0.043191712 -0.03679606 -0.03566878 -0.037685115 0.043681417 -0.0018821942
-0.015739186 -0.06845562 0.058766555 0.07484565 0.04308633 -0.0064780624 -0.039689403 0.019276204
0.099665 0.09807893 -0.0014024075 0.06725212 -0.046326734 -0.0006998747 0.035645846 0.03247138
0.019067256 0.05226222 -0.07737704 -0.012344303 -0.016061988 0.071353555 0.081964776 -0.069400795
-0.01652451 0.0860483 -0.061679147 -0.018517546 0.0103721395 -0.015669787 0.041437104 -0.074311815
0.06619696 0.05910041 0.03229982 0.050047792 0.05388779 0.06352853 0.004066102 0.032026708
-0.08137432 0.027843028 -0.043560922 -0.046517957 -0.076795496 0.024028862 -0.03133327 -0.055023752

hb.out_conv.0.bias f4 [3]
00000000: d8d3 e5bb abf7 e7bc a5c0 d03c
-0.007013779 -0.02831634 0.025482485

calibrate.in_conv.0.weight f4 [16, 3, 3, 3]
00000000: 14c1 b8bc ca46 e1bc 1186 56bc 0b2b 7a3c
00000010: acc2 3cbd 4ddf 86bc ac77 f6bc 3375 8fbc
00000020: ed58 c13c 8fec 7f3d 35b8 26bd 8c3f 81bd
00000030: 31ea 3ebd 3013 0abd 8264 9dbc 9a89 8c3d
00000040: b847 513d 7223 983d 666b b83d 0d31 16bb
00000050: e688 563c e664 293c 73d3 0cbc f808 c0bc
00000060: bae5 4dbd 09fe 97bd 6aaf 31bd 3c9e 66bd
00000070: c305 633d 9407 eb3d 9364 59bd 3e2b 0fbd
00000080: 1ed1 96bd bd05 2d3c a803 14bd 6b40 573d
00000090: 0c2c e13d 77e1 9b3d 5341 ddbd 584b 87bc
000000a0: 9746 323c 5dbf acbd 76c8 77bc 615c adbd
000000b0: 6b23 15bd 958d 70bd c29e 2bbd 55a2 17bd
000000c0: 6f4c 133d 5c73 68bd e74e 98bc 9646 d4bb
000000d0: 5465 8fbc 77fb 943d 2c8b e4bd 047f f1bd
000000e0: f3a5 673c 7861 32be c956 03be 90cd 1dbd
000000f0: fc84 78bb 9d5b 1ebd 8b80 27be 64f0 c9bd
00000100: 21d1 a53d c043 edbc 3373 6cbd ccaa 0a3e
00000110: 8101 2e3e e4af 383a 438c 2cbe d6ca aebc
00000120: 89b4 bdbd 0bff 173e 4290 48be 6d8b 7a3d
00000130: d70a 3abd 6449 c6bc fa35 983d c852 813d
00000140: 78db bd3d f965 023d 017c 2c3d 9f2c c3bc
00000150: dc20 a13d cea1 053d ebec 3a3d 88ea 7fbc
00000160: 12eb b8bc ae1f 813d 3159 be3c bbb2 113c
00000170: 1a4a 103c a2bb 133d 3f87 fc3c 7cb0 36bd
00000180: b4c5 a1bc 1a3b c5bc 59f1 ac3d a86b 39bd
00000190: 1a1d 653c f587 d03c 4014 bc3c 61a4 51bc
000001a0: f3a2 05bc 477a 0f3d 1a89 d03b b852 9abc
000001b0: 81ea 6c3c 302e 123d d992 e23c ce5c 833d
000001c0: 0940 643c 3874 c03d 3d08 b4bd 5b55 1dbe
000001d0: 5069 903d ab6d b1bd 7d58 903a 8488 cbbd
000001e0: a7db 80bd 781d 1cbe 743a c83d 25f2 263e
000001f0: 352a 73bc cacf abbd 7d26 e53d bd48 283e
00000200: a11c b53d 1056 2cbc 3725 693e b3df 003e
00000210: cc09 b2bd f865 0fbd 9c20 483d 8a70 8cbc
00000220: ad42 b63d 98d7 98bd e938 93bd 3151 073d
00000230: aaa3 d73d 44b5 03bc 92c6 b5bc 2acc c43d
00000240: f512 d13c ecc0 a3bc bf55 d83c 1ccb eabd
00000250: 9d45 1cbd 5e0c ddbd 8728 78bc 07e6 673b
00000260: 6bba ff3d 2485 18be c3bd 873d 50a7 663e
00000270: 3c8d 2e3e e210 aa3c 12af 1b3e 45e7 ca3d
00000280: f0cf d23d b8e4 c33d 23ce 0c3d 72cc 0b3d
00000290: 4b20 febc cf72 943d 4a46 0ebe 0122 653e
000002a0: 6df1 3abe d0fd fc3d 0a03 463e 3a36 403d
000002b0: 5541 74bd c264 bcbc 99f8 f23d 0633 573e
000002c0: 6822 f43c ac47 3f3e 0523 30bc 018f 1bbe
000002d0: ea81 3fbd 7b85 6ebc 0659 413d ab37 603d
000002e0: 651b 423e 66b2 da3d 7307 4c3d 1df3 56be
000002f0: 74b2 1a3e b449 873d 1ea1 b33d 9933 21bd
00000300: cd64 783d 339a 223e 1202 3fbd 03f6 593e
00000310: 3e1e 653e 2950 1e3e eac3 bebd 16eb 85bd
00000320: 9ff6 31bd eef1 d5bd 78e6 dd3c 6f97 cbbc
00000330: a6bd 46bd 1d86 3e3d ec6b 173e ffbd b53b
00000340: 2640 acbd 5052 c7bd 2ef7 f23d cc65 323e
00000350: 178b 143e b7f1 11bc 70cc 07be 769f 09be
00000360: f937 0abe 34bf bc3d 12a1 dcbc 02fd d33c
00000370: 1cbe b13d fae8 85bd 549b 643c 0416 5d3d
00000380: 03b7 6fbd a074 0d3e 77d4 ff3c b0f1 053c
00000390: 7c15 89bd c6e9 e43d b867 933d 0cb6 033e
000003a0: 29cb 5a3c d39d 0b3d 694a 05be c9d2 97bd
000003b0: b726 2cbe 83d2 003e 9355 0bbe 5a1e 4f3e
000003c0: 1285 6dbd 5cde b33d a83e 13be 6c75 8c3d
000003d0: 8b7d de3c 141e 393e e088 0c3e cc6d 603d
000003e0: 41a4 13be 9049 063e b52e d0bd 99d6 1dbd
000003f0: 1e6b 83bd df48 cdbd 9867 0dbd 56d6 b03d
-0.022553004 -0.027499575 -0.013093487 0.015269051 -0.04608409 -0.0164639 -0.03008636 -0.01751194
0.023601973 0.06248146 -0.040703017 -0.06310949 -0.04661006 -0.033709705 -0.019212965 0.06862183
0.051093787 0.07428636 0.090048596 -0.002291742 0.013094163 0.0103389975 -0.008595335 -0.023441777
-0.050267912 -0.074215 -0.04338018 -0.056303248 0.055425417 0.11476055 -0.05307443 -0.03495335
-0.07364105 0.01056045 -0.0361363 0.052551668 0.109947294 0.076113634 -0.10803475 -0.016515419
0.010881088 -0.08434937 -0.015123477 -0.084648855 -0.03641073 -0.058728773 -0.04189945 -0.037020046
0.035961565 -0.05675064 -0.018592311 -0.006478141 -0.017504372 0.072745256 -0.111593574 -0.117918044
0.0141386865 -0.17419994 -0.12826075 -0.038526118 -0.0037921062 -0.038661588 -0.16357629 -0.09860304
0.08096529 -0.02896297 -0.05772705 0.13541716 0.16992761 0.0007045253 -0.1685038 -0.021336954
-0.0926295 0.14843385 -0.1958628 0.061168123 -0.045420494 -0.024204917 0.0743217 0.063146174
0.09270376 0.03183553 0.042110447 -0.023824988 0.078675956 0.032625012 0.0456361 -0.015619881
-0.022573028 0.063048705 0.02323589 0.00889271 0.00880673 0.036067612 0.03082621 -0.044601902
-0.019747593 -0.024076033 0.08444471 -0.045268685 0.013983989 0.025455454 0.022958875 -0.012795539
-0.008156526 0.035028722 0.006364 -0.018838271 0.014460207 0.03568858 0.027657913 0.064141855
0.013931283 0.09397167 -0.08790634 -0.15364592 0.07051337 -0.08663496 0.00110127 -0.09938148
-0.06291895 -0.15245616 0.09776774 0.16303308 -0.014841606 -0.08389242 0.11188982 0.16433997
0.08843351 -0.010518566 0.22768103 0.12585334 -0.08693275 -0.035009354 0.048859224 -0.017143507
0.08899436 -0.07462996 -0.07188589 0.033036415 0.10529263 -0.008038823 -0.022189412 0.09609254
0.025521735 -0.019989453 0.026408074 -0.11464521 -0.038152326 -0.107933745 -0.015146381 0.003538491
0.12486728 -0.14894539 0.06627991 0.22524762 0.17046064 0.020760003 0.15203503 0.099073924
0.10293567 0.09565109 0.034376275 0.03413052 -0.031021258 0.072484605 -0.13894 0.22376253
-0.18256159 0.123530984 0.19337097 0.046926714 -0.059632618 -0.022997264 0.118638225 0.21015558
0.029801562 0.18679684 -0.010750537 -0.1519127 -0.046754755 -0.014558191 0.04720404 0.05474059
0.18955763 0.10678558 0.04981179 -0.20991178 0.15107137 0.06605855 0.08770965 -0.039355848
0.060643006 0.15879135 -0.046632834 0.21285252 0.22374818 0.15460266 -0.093147114 -0.0653898
-0.043448087 -0.10446535 0.027087435 -0.024852483 -0.048520707 0.04651462 0.14787263 0.005546331
-0.08410673 -0.09732497 0.11863552 0.17421645 0.14506184 -0.008907727 -0.1326158 -0.13439736
-0.13497914 0.092161566 -0.026932273 0.02587748 0.086788386 -0.065385774 0.013953049 0.053976074
-0.058524143 0.1381402 0.03122924 0.008175299 -0.06693551 0.11177401 0.07197517 0.12862414
0.013354101 0.03408606 -0.13016666 -0.07413251 -0.16811644 0.12580304 -0.13606863 0.20226422
-0.057988234 0.08782646 -0.1437937 0.06858334 0.027159473 0.1807788 0.13724089 0.05479221
-0.14418127 0.13114 -0.10165159 -0.038534734 -0.06416915 -0.10023665 -0.034522623 0.08634631

calibrate.in_conv.0.bias f4 [16]
00000000: 44a4 09be 0f86 dabd 4ac3 693d 1385 05bd
00000010: 147a 5b3d a5fc 0cbb a050 31bb c465 223d
00000020: 4e59 ad3d 05ed 3e3e 2e6f 24bd 55b2 033e
00000030: b3f9 4f3c 002f 513d fab5 fe3b 3951 053e
-0.13441569 -0.10670101 0.057071008 -0.032597613 0.05358322 -0.0021512893 -0.0027056113 0.039647833
0.08464299 0.18645103 -0.04014509 0.12860997 0.01269381 0.051070213 0.007773158 0.13019265
